…
2023-12-11T00:12:41 | INFO | root : Loading pretrained ViT-L-14 weights (datacomp_xl_s13b_b90k).
2023-12-11T00:12:43 | INFO | root : Loaded ViT-L-14 model config.
2023-12-11T00:12:45 | INFO | root : Loading pretrained ViT-L-14 weights (datacomp_xl_s13b_b90k).
2023-12-11T00:12:47 | INFO | mmf.trainers.mmf_trainer : Loading optimizer
2023-12-11T00:12:47 | INFO | mmf.trainers.mmf_trainer : Loading metrics
2023-12-11T00:12:47 | INFO | mmf.trainers.mmf_trainer : ===== Model =====
2023-12-11T00:12:47 | INFO | mmf.trainers.mmf_trainer : open_clip_class(
  (language_module): BertModelJit(
    (embeddings): BertEmbeddingsJit(
      (word_embeddings): Embedding(30522, 768, padding_idx=0)
      (position_embeddings): Embedding(512, 768)
      (token_type_embeddings): Embedding(2, 768)
      (LayerNorm): LayerNorm((768,), eps=1e-12, elementwise_affine=True)
      (dropout): Dropout(p=0.1, inplace=False)
    )
    (encoder): BertEncoderJit(
      (layer): ModuleList(
        (0-11): 12 x BertLayerJit(
          (attention): BertAttentionJit(
            (self): BertSelfAttentionJit(
              (query): Linear(in_features=768, out_features=768, bias=True)
              (key): Linear(in_features=768, out_features=768, bias=True)
              (value): Linear(in_features=768, out_features=768, bias=True)
              (dropout): Dropout(p=0.1, inplace=False)
            )
            (output): BertSelfOutput(
              (dense): Linear(in_features=768, out_features=768, bias=True)
              (LayerNorm): LayerNorm((768,), eps=1e-12, elementwise_affine=True)
              (dropout): Dropout(p=0.1, inplace=False)
            )
          )
          (intermediate): BertIntermediate(
            (dense): Linear(in_features=768, out_features=3072, bias=True)
          )
          (output): BertOutput(
            (dense): Linear(in_features=3072, out_features=768, bias=True)
            (LayerNorm): LayerNorm((768,), eps=1e-12, elementwise_affine=True)
            (dropout): Dropout(p=0.1, inplace=False)
          )
        )
      )
    )
    (pooler): BertPooler(
      (dense): Linear(in_features=768, out_features=768, bias=True)
      (activation): Tanh()
    )
  )
  (classifier): MLPClassifer(
    (layers): ModuleList(
      (0): Linear(in_features=1536, out_features=768, bias=True)
      (1): BatchNorm1d(768, eps=1e-05, momentum=0.1, affine=True, track_running_stats=True)
      (2): ReLU()
      (3): Dropout(p=0.5, inplace=False)
      (4): Linear(in_features=768, out_features=768, bias=True)
      (5): BatchNorm1d(768, eps=1e-05, momentum=0.1, affine=True, track_running_stats=True)
      (6): ReLU()
      (7): Dropout(p=0.5, inplace=False)
      (8): Linear(in_features=768, out_features=2, bias=True)
    )
  )
  (losses): Losses(
    (losses): ModuleList(
      (0): MMFLoss(
        (loss_criterion): CrossEntropyLoss(
          (loss_fn): CrossEntropyLoss()
        )
      )
    )
  )
)
2023-12-11T00:12:47 | INFO | mmf.utils.general : Total Parameters: 111257858. Trained Parameters: 111257858
2023-12-11T00:12:47 | INFO | mmf.trainers.core.training_loop : Starting training...
…
